double_pendulum_reinforce.pt (torch, 8920 bytes, 8 tensors)

fc1.weight f4 [32, 4]
000000 1d 3b d2 3d a3 31 91 be 3d f3 d3 3e 46 41 f2 be
       0.10265181 -0.28358182 0.41396514 -0.47315425
000010 18 06 69 3e 72 7f b9 be 1c a0 08 be ac 0a b5 3e
       0.22756231 -0.36230046 -0.13342327 0.35359704
000020 a5 d5 c0 3e 84 ae 31 3f 51 b0 ce 3e 0a f5 9e 3f
       0.37662998 0.69406915 0.40368894 1.241853
000030 6c 5c 5f bd 90 a4 90 be 43 9d c1 be 52 9f 8b bf
       -0.0545315 -0.2825055 -0.37815294 -1.0907996
000040 3c ff b7 be c0 4a d1 bd f0 9d cf 3d 80 5a de 3c
       -0.35936916 -0.102193356 0.10137546 0.027142763
000050 ba 94 f0 3e dc 6c 9e 3e 09 ce 6f 3e e2 db 12 bf
       0.4698847 0.30942428 0.2341844 -0.57366765
000060 eb 4d 7a 3e cf 29 42 3e 72 a7 5e 3f 05 29 8d 3f
       0.24443786 0.18961261 0.8697425 1.1028143
000070 fe df ff be e0 1f 87 3e e0 8f c7 3d ba c4 dc be
       -0.4997558 0.26391506 0.09744239 -0.4311884
000080 9c 5d 86 3e 26 fa ce be 10 a3 bc be d8 6c 25 3e
       0.26243293 -0.40425223 -0.36843157 0.16154802
000090 1b 4c 90 bd 90 1b 06 3f 62 02 61 3f 4b 51 6c 3f
       -0.07045766 0.5238581 0.8789426 0.92311543
0000a0 69 8c b2 bd 77 26 ef bc e9 62 80 be 23 5d 79 3e
       -0.08718187 -0.029193146 -0.25075462 0.24351935
0000b0 18 d2 36 3e f0 8c 1a 3d 54 ce 7c 3e 50 cd 40 3d
       0.17853582 0.037732065 0.24688083 0.0470708
0000c0 a7 f7 ed be 5d 3f 8a bc 9c a1 28 bf 9b 08 6f be
       -0.46478006 -0.016875917 -0.65871596 -0.23343126
0000d0 6c 88 41 3e a2 65 9b be e6 41 9f 3e 22 f4 c4 3d
       0.18899697 -0.30350977 0.31104964 0.09616877
0000e0 46 82 ea 3e 91 c6 21 3f 86 e5 51 3f 9d a3 6f 3f
       0.45802516 0.63193613 0.8199085 0.9360903
0000f0 90 ca 8b 3e 67 ee f8 be f2 db 4d bf d4 2a 6f bf
       0.2730298 -0.48619387 -0.80413735 -0.93424726
000100 69 6e 85 3e 9c 54 1e be 72 ef fc be d5 98 8b bf
       0.260608 -0.15461963 -0.49401432 -1.0906016
000110 0c 78 c5 3e 48 c0 cb be 04 7d 11 be ec ba a3 3e
       0.3856815 -0.39795136 -0.14207846 0.31978548
000120 4b e2 dc 3d fa fd b7 3e d9 73 9b bb b0 3f f8 be
       0.107853495 0.35935956 -0.0047440347 -0.4848609
000130 75 82 b0 be 93 80 24 be f9 5d 69 bf 41 ff e2 be
       -0.3447453 -0.16064672 -0.91159016 -0.44335368
000140 a0 79 d9 3c f0 7e 64 be 9c 6b 1f 3e ee a3 e8 3e
       0.026547253 -0.22314048 0.15568393 0.45437568
000150 c4 95 51 3e 18 ff ed be 50 bb 1a be 62 e7 92 3e
       0.20467287 -0.46483684 -0.15110517 0.28692156
000160 ad 3c 22 3d c5 b7 95 bd b6 21 04 bf 87 43 3a be
       0.039608646 -0.07310442 -0.5161394 -0.18189822
000170 88 3e 9b 3d 89 5f 1f be 6d 88 1e 3e ae 25 02 bf
       0.07580286 -0.15563788 0.1548173 -0.50838745
000180 90 1c eb 3e 32 21 8a be 76 3b db be 14 9c 64 3e
       0.4592023 -0.2697845 -0.42818803 0.22325164
000190 a9 4b c3 3e 51 2c ac be e9 24 0a bf dc 28 17 bf
       0.38143662 -0.3362756 -0.5396257 -0.5904672
0001a0 64 1b b4 be 68 2b 90 be c6 88 fa be 00 84 96 3a
       -0.35177147 -0.28158116 -0.48932475 0.0011483431
0001b0 49 ec 86 3e 47 f1 b9 3e 1c 56 84 3f 42 e1 a2 3f
       0.26352146 0.36316893 1.0338778 1.2724993
0001c0 84 e8 4d 3e 83 25 2b be 3e 0b 4d 3e 38 7a 0b 3e
       0.20108229 -0.16713528 0.2002382 0.13620842
0001d0 8c dd ed 3e 95 4d 85 3e e7 b3 6e 3e 5f b4 1a 3f
       0.4645809 0.26035753 0.23310815 0.60431474
0001e0 c7 14 94 be 40 20 bc bd 01 94 3d bf 9f d0 dd be
       -0.28922102 -0.09185839 -0.7405396 -0.43323228
0001f0 d8 b2 96 bd 3e d0 d1 3e 12 a4 d5 be d6 23 a2 3e
       -0.073583305 0.4097919 -0.41726738 0.31667966

fc1.bias f4 [32]
000000 c4 ac d0 3e 64 b4 97 be ac e9 d6 3d 28 6f ba 3d
       0.4075681 -0.29629815 0.10493788 0.091032326
000010 d4 ce 44 be ca 31 d9 3c 28 af e9 3d 26 0f b7 be
       -0.19219524 0.026513 0.114103615 -0.35753745
000020 2e fe 96 be b8 46 b2 3d 22 7b 89 bd d8 bc e4 bd
       -0.294908 0.08704895 -0.06712939 -0.111688316
000030 ce 2c a3 3e a4 f9 a3 bd 54 6d 01 3f 3b 23 db 3e
       0.3187012 -0.080065995 0.50557446 0.42800316
000040 d9 e8 9b 3d 18 28 3e be 47 4b 8d 3e 79 83 db 3e
       0.076127715 -0.18569982 0.27596495 0.42873743
000050 c0 fa c6 be f4 29 d4 be 59 2d ac 3e 38 e8 b3 3e
       -0.38863182 -0.41438258 0.33628348 0.35138106
000060 f0 99 ed bd e5 e0 12 3f 02 ad 82 be 8a 2a 54 3e
       -0.11601627 0.5737441 -0.2552262 0.20719352
000070 bd 54 8a 3e 3d 95 5a 3d 88 75 b7 3e 2c 41 94 be
       0.27017775 0.05336498 0.35831857 -0.28955972

fc2.weight f4 [32, 32]
000000 ca 05 a2 3d 03 4b 99 bd 32 2a bb 3e 10 90 fd bd
       0.079112604 -0.074850105 0.3655563 -0.12380993
000010 33 cc 27 3e 3e b7 a3 bc 71 24 b0 3e 1d 96 fb 3a
       0.1638649 -0.019984838 0.34402803 0.0019194518
000020 e4 dd da 3d 26 1b 50 bc e0 1b 44 bd 48 eb 97 3d
       0.106868535 -0.012701785 -0.047878146 0.07417923
000030 23 33 15 3e 39 50 e0 3d 42 53 01 3e c5 03 50 3d
       0.14570288 0.10952801 0.12629417 0.050784845
000040 2b c3 a9 bd 46 09 b2 3c fa 3c 1b be ec ac 1e be
       -0.082891785 0.021732938 -0.1515998 -0.15495652
000050 07 5e 1f 3d 91 94 12 3d 4d 68 14 bd 04 40 b4 3c
       0.03890803 0.035786215 -0.03623228 0.022003181
000060 4a 42 79 3d cb 79 bc bd b9 a1 d8 3c 77 71 12 3e
       0.060854234 -0.09202918 0.026444303 0.14301096
000070 6f 10 f4 bd 60 5d 10 3d 88 3b 0d be e3 cf 4f bd
       -0.11917197 0.0352453 -0.1379224 -0.050735366
000080 e7 15 dc bd 67 05 91 bd 44 55 d4 3d e8 f7 4a bd
       -0.10746365 -0.070811085 0.103678256 -0.049552828
000090 52 d1 e0 3c 96 8c 0e bd d0 10 e2 bd 2b ae 08 be
       0.027443562 -0.034802042 -0.11038363 -0.1334769
0000a0 f4 3c 16 bd 65 3c bd 3d 9e e9 2d be be 50 0f bd
       -0.036679223 0.09240035 -0.16983649 -0.03498911
0000b0 2a 85 d3 3d c7 f8 d5 3c 96 47 9d bd 07 93 2e 3e
       0.103281334 0.026119603 -0.076796696 0.17048274
0000c0 60 a6 14 3e b7 c5 80 3c 45 ab f5 bc c0 c3 a8 bd
       0.14516592 0.015719278 -0.029988894 -0.08240461
0000d0 2f 34 2a 3e 11 79 b1 bd 4f 2c 2b be ab 69 ee 3d
       0.16621469 -0.0866567 -0.16716121 0.11641248
0000e0 3c c9 0f be 84 6d 93 bd 9e dd 45 bd 18 d7 80 3d
       -0.14041609 -0.07198623 -0.048307054 0.06291026
0000f0 19 6e 23 be d8 c4 dc 3d 4c 7a db bd 3c dd ca bc
       -0.15959968 0.107797325 -0.10716686 -0.024763696
000100 ef 4f 85 3c 74 10 07 be b3 b6 08 bd 2c 64 86 3e
       0.016273467 -0.1318987 -0.03337736 0.262483
000110 54 87 e2 3c 6a 95 e3 ba 95 f3 8b be 8c ac fc bd
       0.02765242 -0.0017363254 -0.27334276 -0.12337598
000120 43 43 03 3e 99 f5 7c be 71 b3 04 3e 69 d6 03 be
       0.12818627 -0.24703063 0.12959076 -0.1287476
000130 6f 19 6e 3e 39 b0 19 be 24 80 ca bd 4b 48 2c 3e
       0.2325189 -0.1500863 -0.09887722 0.16824453
000140 0f db 89 3e dc 63 ac 3d 8e d3 2b bd 0f 29 de 3d
       0.2692494 0.08417484 -0.0419498 0.10847675
000150 03 60 24 bd c8 fd 90 3d 5c f6 6d 3e fb 8d ec bb
       -0.040130626 0.07079655 0.2323851 -0.007219074
000160 13 03 2f be 85 a2 75 3e 97 f7 d2 bd e3 c0 24 be
       -0.17091016 0.23987778 -0.1030113 -0.16089205
000170 f8 5d ce 3c 66 13 d4 bd fc 6e 71 3d bb eb 07 be
       0.025191292 -0.103552625 0.058943734 -0.13273518
000180 e4 bb e0 3d d1 e3 3e 3d 3f c7 b5 be 0b 3f 4f 3e
       0.10973337 0.04660398 -0.35503575 0.20238893
000190 58 2c 34 be 72 ac a7 3d e7 dc d1 be 9e 45 1f be
       -0.17595041 0.08187188 -0.40988848 -0.155539
0001a0 5d f1 ba 3d d0 3b 8b be 64 21 a9 3d 84 98 2f 3e
       0.09128068 -0.2719407 0.08258322 0.17148024
0001b0 ab 43 3c 3d 3a 94 8b 3c 2a 6b 31 3b d1 93 50 3e
       0.04596297 0.017038453 0.0027071931 0.20368887
0001c0 66 1d fa 3e 71 f8 a1 3d 33 8c cb 3b 2d cf 68 3c
       0.48850554 0.079087146 0.0062117814 0.014209551
0001d0 ca 71 2a 3b d2 a0 0c be f8 8f 10 3d 03 67 4c 3e
       0.0026007765 -0.13733223 0.03529355 0.19961171
0001e0 dd c4 f8 b9 26 c8 8d bd 84 65 67 3d 31 41 d7 bd
       -0.0004744892 -0.06922941 0.056493297 -0.10510481
0001f0 fb 22 de bd eb cf 66 bd 9a 28 6d 3d 87 f4 24 bd
       -0.10846516 -0.05635063 0.05790005 -0.040272262
000200 e1 21 07 3e ec 28 98 3d 7b f4 19 be de e5 00 3e
       0.13196518 0.0742968 -0.15034668 0.12587687
000210 fb c0 20 3e 83 79 b3 3d 1f 17 77 3d e0 80 c5 bc
       0.15698616 0.08763411 0.060324784 -0.024109304
000220 7c 18 e7 3c 7d 09 6a bd a8 15 e3 3d 69 ef f8 bd
       0.028209917 -0.057137955 0.11088115 -0.12155039
000230 6a 57 0e 3e b8 9a 71 bd 69 13 06 be 00 9f 76 bd
       0.13900533 -0.058985442 -0.13093342 -0.060210228
000240 df b6 75 bd 1e aa 82 bd 11 de 02 be bd 41 ce bc
       -0.059988853 -0.063801035 -0.12780024 -0.02517783
000250 f3 e7 10 3d 39 b8 5b bb cf 2d 82 bd 05 6d 2a 3e
       0.035377454 -0.0033526553 -0.063563935 0.1664315
000260 0e 45 ca bd 95 b3 db bc 30 8d 2e 3e c0 58 9e bc
       -0.098764524 -0.02681903 0.17046046 -0.019329429
000270 1a 34 64 3b 0a a4 2a 3e cc ee 32 3d ca b3 01 3e
       0.0034821094 0.16664138 0.043684766 0.1266624
000280 c0 a9 a5 3d 14 71 e0 3d fd af 5a 3e aa a4 53 be
       0.08089018 0.10959068 0.21356197 -0.20668283
000290 ad fa 01 3e 4a 23 9e bd c7 60 4a 3e 1c 51 9b 3d
       0.12693281 -0.077215746 0.1976348 0.0758383
0002a0 fe 82 0d 3e 4c 32 ba 3e bc c8 ab bd 8e 7c 08 3e
       0.13819501 0.36366498 -0.083878964 0.13328764
0002b0 e1 19 26 bd 4b e7 8b bd e9 fa fe ba 0c 1b 54 bd
       -0.040552024 -0.06831225 -0.0019453439 -0.051783606
0002c0 f3 77 8b be 47 41 1d 3e ed 79 e1 bd fc e6 74 bd
       -0.27239951 0.15356933 -0.110095836 -0.059790596
0002d0 f0 e7 f1 bd 5d 56 e6 bd 4e 68 3f bd 20 45 17 be
       -0.11811817 -0.11246941 -0.046730332 -0.14772463
0002e0 db 5d 21 3e a7 04 01 3e c7 6a 1a be c3 9f 6a 3e
       0.1575846 0.12599431 -0.15079795 0.22912507
0002f0 78 23 e0 bd c8 b8 54 3e b7 fa 9b bd f8 2c b5 bd
       -0.10944265 0.20773613 -0.076161794 -0.08846468
000300 d8 ee 7d 3d d9 87 a7 3d cf 81 26 3a 4b cf 0f 3e
       0.061995357 0.08180208 0.00063517404 0.1404392
000310 ff 50 8d 3b 5e f9 d6 bd c6 31 72 bc 88 86 5a 3d
       0.004312634 -0.10496782 -0.014782375 0.053350955
000320 fc 8d a6 3d 12 2e 22 be 47 cd 98 3d b5 4c 31 be
       0.0813255 -0.15837887 0.074610285 -0.17314418
000330 aa 9d ac bc 31 ef c3 bd 4c 23 01 3d d6 f6 fc bd
       -0.021071274 -0.095671065 0.031527802 -0.12351768
000340 b2 78 27 3e 34 f0 83 3d 3d dd eb 3d ea 22 e1 bd
       0.16354635 0.064422995 0.11516807 -0.109929875
000350 22 47 f8 3d ef df 41 bd b3 8b df bd c9 25 9a bd
       0.121229425 -0.0473327 -0.109153174 -0.07526738
000360 70 01 02 3d e2 33 57 bd c4 20 e8 3d e7 7e 46 3d
       0.031739652 -0.052539714 0.113343745 0.048460867
000370 47 17 b7 3d 8a 92 c3 3d 39 ef 1c be 5d 74 31 be
       0.08939987 0.095494345 -0.15325631 -0.17329545
000380 a6 00 f7 bd 32 37 a5 3d 80 09 1f be 46 24 05 be
       -0.120606706 0.08067168 -0.15530968 -0.13002118
000390 c3 a8 d3 bd 2b 3d 1b bb f4 2e 21 3e 66 90 8c bd
       -0.10334923 -0.0023687582 0.15740567 -0.06863479
0003a0 d3 32 16 be c9 f6 a5 3c 7b 9c 1e bd 7e 46 16 be
       -0.14667825 0.020259278 -0.03872345 -0.14675328
0003b0 65 ee 1b be cb 9c 54 bd 11 fa c6 3d c1 fa a5 bc
       -0.15227659 -0.051907342 0.09715665 -0.02026117
0003c0 97 96 31 3e 14 86 a1 3d a3 1a 53 3d 28 bf 53 3d
       0.17342602 0.078869015 0.051539075 0.051695973
0003d0 df 7c 97 3c 79 fc 1c 3e b5 1c 2f 3e 7f ee be bd
       0.01849216 0.15330686 0.17100795 -0.09322833
0003e0 2f 32 e1 3d 98 da b0 bd eb 79 c4 bc ea f8 25 bb
       0.109959 -0.086354434 -0.023983916 -0.0025325366
0003f0 f5 27 8b bd 76 d0 19 be 0d fe a6 3d 30 cf dc bd
       -0.067947306 -0.15020928 0.08153925 -0.107817054

fc2.bias f4 [32]
000000 48 94 16 3e 15 17 9b bd 7f 5e 19 3e ab 1d f7 3c
       0.14705002 -0.07572762 0.14977454 0.030165514
000010 dc dd 1d be 7b 64 bd 3d 70 87 6f bd 6a 17 99 bd
       -0.15416664 0.09247681 -0.058478773 -0.07475169
000020 f5 0f 49 3d 6e 36 58 3d ab a9 34 be b5 cf 42 3e
       0.049087483 0.052786283 -0.17642848 0.19024546
000030 7e 43 10 3d 15 75 95 bc ae f1 8e bd 97 70 2f be
       0.035220616 -0.018244306 -0.069796905 -0.17132793
000040 01 10 b8 3d 3f 23 ac 3b b8 8d f2 bd c1 53 a1 bd
       0.089874275 0.005253225 -0.11843437 -0.07877303
000050 90 2c 8a bd f2 cb 80 bd 55 0e da bd 3e 4c a2 bd
       -0.06746781 -0.062888995 -0.10647265 -0.07924698
000060 e8 8a 16 be 33 b1 31 be 9f 67 71 3d 15 d7 00 3e
       -0.14701426 -0.17352752 0.05893671 0.12582047
000070 ee 61 17 bd ac 72 b7 bd b1 b2 2b 3e a8 af 16 bc
       -0.036958627 -0.08957419 0.16767384 -0.009197153

fc_mean.weight f4 [2, 32]
000000 fc 53 89 bd 86 50 15 3e e2 aa 58 3e 71 3f 53 3e
       -0.06705472 0.14581499 0.21158937 0.2062967
000010 ab 84 57 3d 89 ee c3 be 93 c1 ed 3d 24 f8 10 3e
       0.052616756 -0.38267925 0.11609187 0.14157158
000020 fa 67 06 3e 56 17 dd be 4f d7 b2 bc d0 76 5c 3c
       0.13125601 -0.43181866 -0.021831183 0.0134560615
000030 d9 03 05 be 37 46 ac 3d b8 78 5a bd 4c c9 99 bd
       -0.12989749 0.0841183 -0.053337783 -0.075090975
000040 3f b3 c8 3d c0 5c c0 3d 12 d0 d1 3d 24 a5 d3 3d
       0.097998135 0.09392691 0.102447644 0.103342324
000050 7a 97 0f bc 2a fa d4 3d b1 d4 22 be e3 ef 6d 3c
       -0.008764142 0.103992775 -0.15901448 0.0145225255
000060 fe 11 28 be 20 fe 2f bd f7 ca bd bb a5 9e c3 3d
       -0.16413113 -0.04296696 -0.0057920176 0.095517434
000070 fa 3a a8 3d e5 08 7a 3d 26 01 8b 3e 8a d3 ba be
       0.08214374 0.06104364 0.27149314 -0.36489516
000080 b5 a0 6c be 40 57 61 bd 86 54 16 3e 83 83 f6 3e
       -0.2310818 -0.05501485 0.1468068 0.4814721
000090 17 fe b6 bd fd d6 b6 be c6 8a ac 3d 00 be e0 bd
       -0.089351825 -0.35710898 0.084249064 -0.109737396
0000a0 76 1c 29 3e 36 eb bc be dd eb a4 3d f6 91 0a be
       0.16514763 -0.36898202 0.080528 -0.13532242
0000b0 55 4b ce 3d 58 bc f4 3d cc d6 88 3d 84 15 75 3d
       0.10072962 0.11949986 0.06681594 0.059834972
0000c0 d7 31 7e 3e 80 80 1f 3e 84 21 c3 bd 43 83 ef 3c
       0.248237 0.15576363 -0.09527877 0.029237395
0000d0 ce 75 12 3c 7b e9 d0 bd 25 44 d6 bc 3b dd b6 3d
       0.00893922 -0.10200783 -0.02615554 0.08928915
0000e0 4d d0 fe 3d 42 2b e9 bd 11 97 be 3e 03 85 98 3d
       0.12442074 -0.11385204 0.3722463 0.07447245
0000f0 70 e3 ad 3d 3e f4 1b be 87 a6 81 3e 3b d5 9c be
       0.08490646 -0.1522989 0.25322363 -0.30631432

fc_mean.bias f4 [2]
000000 fa 26 33 3c c3 bc 9c bd
       0.010934586 -0.07653191

fc_log_std.weight f4 [2, 32]
000000 10 02 aa 3d 9a 2b c7 3d af c1 fa bc 58 49 b7 bd
       0.08301175 0.09725113 -0.030609934 -0.08949536
000010 91 4a 50 bc d6 8b 0c bb f6 12 fa 3d df b9 9e bd
       -0.0127130905 -0.0021445653 0.12210648 -0.07750296
000020 00 2c de 3d 3b 27 2f bd 65 f9 2e be e5 9a 84 3d
       0.10848236 -0.042762022 -0.17087324 0.06474856
000030 ed e4 cf 3d 25 f7 15 be 37 cd e3 3a 07 41 a9 3c
       0.10151086 -0.1464506 0.0017379884 0.02066089
000040 b2 6a 03 be 0a f7 eb bd fc db e9 bd ec 92 c4 3d
       -0.1283367 -0.11521728 -0.11418912 0.095983356
000050 09 72 b2 bd 8e e2 58 3d 5b 16 25 3e 09 90 46 3d
       -0.08713157 0.052950434 0.16121809 0.048477206
000060 2d ba 09 bd b2 e7 1a 3d 76 ba 67 3c b6 e8 69 bc
       -0.033624817 0.037818618 0.014143577 -0.014276674
000070 76 02 f3 3d 75 47 83 3d 63 64 0c be f0 e0 1a be
       0.11865704 0.06410114 -0.1371017 -0.1512487
000080 57 77 3e be d1 c2 e6 bd 28 8e 7d be 62 80 7b bd
       -0.18600212 -0.11267627 -0.2476126 -0.061401732
000090 af 5f 21 3e 50 d6 bc bc e4 2b de bd a2 e1 a0 bd
       0.15759157 -0.02305141 -0.10848215 -0.07855536
0000a0 8f 3e 9a bd 39 4e b2 be 78 af 0e be 24 d0 ac be
       -0.07531463 -0.34825304 -0.13934124 -0.3375255
0000b0 4f 3f 92 3d 8b b0 8e 3d 7f cd 33 be fd 58 b4 3c
       0.071409814 0.06967267 -0.1755886 0.02201509
0000c0 1d f9 6f be 97 41 62 bb cb 67 da 3d 80 58 19 be
       -0.23434873 -0.0034523958 0.10664328 -0.14975166
0000d0 1b ee 0d 3e 37 b9 7d bd 8e 81 dc bc e3 4e e2 bd
       0.13860361 -0.061944213 -0.026917245 -0.11050203
0000e0 82 61 2c be b3 98 19 be e6 61 5f be 3f 7c bd be
       -0.16834071 -0.14999656 -0.21814689 -0.37008855
0000f0 0e 4a a0 3d 18 36 9e 3d 87 ec 87 be b5 83 5a be
       0.07826625 0.07725161 -0.26547644 -0.21339305

fc_log_std.bias f4 [2]
000000 9c bc 8b 3d bd b0 2f be
       0.06823084 -0.17157264
